…
WARNING:tensorflow:From /usr/local/lib/python3.6/dist-packages/keras/backend/tensorflow_backend.py:3657: The name tf.log is deprecated. Please use tf.math.log instead.

WARNING:tensorflow:From /usr/local/lib/python3.6/dist-packages/tensorflow_core/python/ops/nn_impl.py:183: where (from tensorflow.python.ops.array_ops) is deprecated and will be removed in a future version.
Instructions for updating:
Use tf.where in 2.0, which has the same broadcast rule as np.where
Model: "sequential_1"
_________________________________________________________________
Layer (type)                 Output Shape              Param #   
=================================================================
embedding_1 (Embedding)      (None, 500, 32)           160000    
_________________________________________________________________
dropout_1 (Dropout)          (None, 500, 32)           0         
_________________________________________________________________
conv1d_1 (Conv1D)            (None, 500, 32)           3104      
_________________________________________________________________
max_pooling1d_1 (MaxPooling1 (None, 250, 32)           0         
_________________________________________________________________
lstm_1 (LSTM)                (None, 100)               53200     
_________________________________________________________________
dropout_2 (Dropout)          (None, 100)               0         
_________________________________________________________________
dense_1 (Dense)              (None, 1)                 101       
=================================================================
Total params: 216,405
Trainable params: 216,405
Non-trainable params: 0
_________________________________________________________________
WARNING:tensorflow:From /usr/local/lib/python3.6/dist-packages/keras/backend/tensorflow_backend.py:1033: The name tf.assign_add is deprecated. Please use tf.compat.v1.assign_add instead.
…
